models/snake_dqn_ep7000_sc25.pth (torch, 521893 bytes, 10 tensors)

layers.0.weight f4 [256, 335]
-0.016629288 -0.06435177 -0.014222571 0.25145227 0.06568127 0.2535239 0.13805553 -0.05950951
0.12092463 -0.02685492 0.017367478 -0.038429745 0.024653459 -0.0314294 -0.1910373 0.022076653
-0.022148263 -0.37464342 -0.1979667 -0.18560319 -0.018945463 0.030365575 -0.055487074 0.03648846
0.018308695 -0.05265528 0.09383289 0.07278888 0.01790027 0.047872607 0.0013823805 -0.062385347
0.04495786 0.02158473 -0.005777652 0.0036451032 -0.006420944 0.034918692 0.2833183 -0.18576358
0.097020075 -0.023023121 0.01765161 0.00021935825 -0.02283049 -0.009952629 -0.0024804608 -0.012983814
0.01938707 0.0031098258 -0.027690934 -0.039023273 0.0049003568 -0.008771408 0.015724031 0.0058828867
-0.0060105254 -0.00060299004 -0.058437493 0.0042017587 -0.0013543457 -0.041963063 0.029120844 0.02938474
0.07941089 0.0245396 0.043470237 0.01915555 -0.011631038 0.019922063 0.018270401 0.03915186
-0.055481967 -0.12076104 0.0075188875 0.02027282 -0.011219201 0.057999454 -0.022747627 -0.17805435
0.009295938 0.011460908 0.02663601 -0.011757452 -0.0125539005 -0.021659879 -0.014375481 0.010709025
-0.028548425 0.0006813604 0.02730944 -0.055530287 0.012201135 0.03275173 0.005115628 -0.03139649
-0.009144321 0.0074162907 -0.0023551486 -0.036847565 0.011233487 0.03733274 0.005485407 0.0009534271
-0.015226038 0.055607565 0.025409628 0.029162467 0.010030099 0.013221091 -0.06272108 -0.012504529
-0.00051844784 0.0040322677 0.003900704 0.031166602 0.03999338 0.032450594 0.038111687 0.029967409
-0.03703112 -0.02404127 -0.0051748888 0.031389102 0.0010578843 -0.026865019 0.019990662 -0.015103363
0.022754738 0.016575972 -0.013167244 -0.04897092 -0.0055390405 -0.021036165 0.00066429295 -0.020081151
-0.012575352 -0.006448793 -0.020948503 0.033032008 -0.029814713 0.021683786 0.03180089 0.037755653
-0.012710215 -0.016125971 -0.008691305 -0.06027916 -0.040375996 -0.011863265 -0.028783537 -0.0019278948
0.014210023 0.0502674 -0.012982663 0.011544673 -0.019010967 -0.01937302 -0.009467842 -0.03865652
-0.020190941 -0.030356688 0.014433019 0.0041665337 0.007014405 0.016290203 -0.031376176 -0.020516535
0.010951066 0.0060000424 -0.03678723 -0.040948484 -0.078876376 -0.11240802 0.008341343 0.011098622
-0.011681747 0.009294833 0.05220129 -0.045185078 -0.018844733 0.0026722446 -0.02077041 -0.01748036
-0.08468913 -0.07880839 -0.08310505 0.035824288 0.0031976744 0.067419775 0.053150184 0.03421997
-0.0062549682 -0.041750107 -0.041714277 -0.021063061 -0.005518327 -0.015417535 0.026181452 0.06808846
-0.022576686 0.009492584 -0.035808183 0.04019135 -0.0014399799 -0.044296876 -0.006890899 -0.08088598
-0.0491585 -0.033811726 0.024990097 0.05644143 -0.022660552 0.03356406 0.04230672 -0.05534984
0.007888213 -0.02176805 -0.021039588 -0.035030525 -0.0101017505 -0.040880747 -0.054882046 -0.0014334312
0.015326614 0.076557025 -0.016932007 -0.0028132345 -0.12831475 -0.019009164 0.04228826 -0.014569369
0.027350532 -0.06243083 0.030443542 0.02319109 0.0036786054 -0.0014019749 -0.1072566 0.12357458
-0.010730877 -0.0041459748 0.0033136958 -0.12565747 0.009168256 -0.3083455 -0.004581354 -0.13496919
-0.006492329 0.043688077 0.062877975 0.052123483 0.008981185 -0.024819309 0.05279973 -0.0035641207
00000000: 253a 88bc dcca 83bd c905 69bc 5abe 803e
00000010: e783 863d e2cd 813e 6e5e 0d3e 3ec0 73bd
00000020: 55a7 f73d d9fe dbbc 3e46 8e3c 8268 1dbd
00000030: 0df6 c93c 1dbc 00bd 489f 43be 19da b43c
00000040: 4670 b5bc 43d1 bfbe c8b7 4abe c30e 3ebe
00000050: 8433 9bbc 3ac1 f83c 6a46 63bd ec74 153d
00000060: 1efc 953c 10ad 57bd 752b c03d 5612 953d
00000070: 96a3 923c 1116 443d fe30 b53a c787 7fbd
00000080: bc25 383d 76d2 b03c 7552 bdbb afe2 6e3b
00000090: c866 d2bb e706 0f3d 190f 913e cf38 3ebe
000000a0: 76b2 c63d fc9a bcbc 1c9a 903c 8803 6639
000000b0: 0207 bbbc 5a10 23bc 3a8f 22bb 10ba 54bc
000000c0: a2d1 9e3c 38ce 4b3b 19d8 e2bc ded6 1fbd
000000d0: 2c93 a03b f4b5 0fbc afcf 803c 3bc5 c03b
000000e0: f1f3 c4bb fa11 1eba 275c 6fbd e8ae 893b
000000f0: 4d84 b1ba 76e1 2bbd d68e ee3c 44b8 f03c
00000100: 2da2 a23d 4507 c93c d90d 323d 1aec 9c3c
00000110: 1c90 3ebc 9833 a33c cfab 953c b35d 203d
00000120: 0f41 63bd 9051 f7bd 0061 f63b 2f13 a63c
00000130: bdd0 37bc d690 6d3d 3b59 babc e153 36be
00000140: fd4d 183c 88c6 3b3c c333 da3c 54a2 40bc
00000150: e0ae 4dbc 0f70 b1bc 2387 6bbc e874 2f3c
00000160: 63de e9bc 539d 323a 0cb8 df3c ba73 63bd
00000170: 45e7 473c ae26 063d ffa0 a73b 9b99 00bd
00000180: 10d2 15bc 5b04 f33b d658 1abb 79ed 16bd
00000190: a90c 383c 37ea 183d eebe b33b 69ef 793a
000001a0: a276 79bc c2c4 633d da27 d03c 20e6 ee3c
000001b0: 4955 243c 469d 583c e973 80bd ccdf 4cbc
000001c0: 72e8 07ba 1d21 843b f4a2 7f3b 1a51 ff3c
000001d0: 19d0 233d eaea 043d 001b 1c3d 367e f53c
000001e0: f2ad 17bd 33f2 c4bc 1d92 a9bb dc91 003d
000001f0: b5a8 8a3a 0714 dcbc 75c3 a33c 1974 77bc
00000200: 2568 ba3c 55ca 873c 6dbb 57bc bb95 48bd
00000210: d780 b5bb 0954 acbc f223 2e3a 3a81 a4bc
00000220: d908 4ebc 6650 d3bb 329c abbc 924c 073d
00000230: fc3d f4bc 32a2 b13c a641 023d aca5 1a3d
00000240: 813e 50bc 9d1a 84bc fa65 0ebc 48e7 76bd
00000250: 4d61 25bd 245e 42bc 74cb ebbc 6ab1 fcba
00000260: 28d1 683c 30e5 4d3d 3cb5 54bc de25 3d3c
00000270: e3bc 9bbc 2bb4 9ebc 021f 1bbc 4d56 1ebd
00000280: 7967 a5bc 97ae f8bc 7878 6c3c 6b87 883b
00000290: 18d9 e53b 0873 853c 4e84 00bd 4b12 a8bc
000002a0: 1a6c 333c 019c c43b 35ae 16bd 99b9 27bd
000002b0: f089 a1bd 2d36 e6bd 21aa 083c ffd6 353c
000002c0: cc64 3fbc 5b49 183c 05d1 553d fd13 39bd
000002d0: 4560 9abc d320 2f3b b526 aabc f932 8fbc
000002e0: 7f71 adbd 4b66 a1bd fb32 aabd 7dbc 123d
000002f0: 1390 513b 6113 8a3d 02b4 593d 3d2a 0c3d
00000300: 7af6 ccbb 2902 2bbd 97dc 2abd 718c acbc
00000310: 15d3 b4bb d499 7cbc 7c7a d63c f671 8b3d
00000320: bef2 b8bc c886 1b3c 9aab 12bd af9f 243d
00000330: b5bd bcba a470 35bd 0dcd e1bb 8ca7 a5bd
00000340: 6c5a 49bd 2a7e 0abd 08b8 cc3c 212f 673d
00000350: 9fa2 b9bc 787a 093d d049 2d3d 84b6 62bd
00000360: 903d 013c e952 b2bc 375b acbc 2b7c 0fbd
00000370: d081 25bc 9272 27bd ffcb 60bd f8e1 bbba
00000380: 7a1c 7b3c eec9 9c3d feb4 8abc 3e5e 38bb
00000390: f164 03be 1bb9 9bbc 7436 2d3d 5db4 6ebc
000003a0: 390e e03c 78b7 7fbd bc64 f93c 3efb bd3c
000003b0: c214 713b 79c2 b7ba 59a9 dbbd ab14 fd3d
000003c0: 8fd0 2fbc f5da 87bb 972a 593b 5aac 00be
000003d0: 7436 163c 76df 9dbe 2f1f 96bb 5d35 0abe
000003e0: 9abd d4bb 45f2 323d 2bc6 803d 6f7f 553d
000003f0: d225 133c dd51 cbbc 8844 583d 0694 69bb

layers.0.bias f4 [256]
0.003078742 -0.03624815 -0.0046670693 -0.0075222524 -0.0064670704 0.106628 0.009176264 0.0077416007
0.11999859 -0.03918173 0.05501406 0.020308208 -0.0757041 -0.02688771 0.103583165 0.123696156
0.0023933854 0.14591353 0.011080205 -0.0032598453 0.046845466 0.038415454 -0.11987393 0.07748712
-0.015952906 0.095993504 0.14528953 -0.03960803 -0.031993493 0.018006336 0.11847974 0.049121615
0.05404817 -0.011759954 0.13196118 0.019733032 0.011151102 0.010050801 0.008263935 -0.038823638
-0.016625464 0.020880204 0.14018443 -0.003989162 -0.034611378 0.13134474 0.0010142786 0.141575
0.037027337 0.038879763 -0.006025513 -0.025103658 0.0056608114 0.0075038043 0.014167191 -0.04491971
-0.007401784 -0.02179139 -0.020053692 0.114664406 0.06961235 0.06120243 -0.00026788545 0.0296696
0.011831042 -0.00024147042 0.044306464 -0.015797965 0.11388045 0.014760614 -0.032157373 -0.009225387
-0.004476622 0.017525854 -0.035198692 -0.05827119 0.12582679 0.016558835 0.037144903 -0.04934015
0.09412731 0.10613718 0.003118443 0.071826935 0.1341164 0.11495403 0.017637406 0.030946894
0.00023463064 0.036926158 -0.015500663 -0.02349996 0.03254675 0.100798115 0.020817539 0.02223101
-0.005043093 -0.0043224273 -0.039440285 0.11460797 0.11441339 -0.013375537 0.011500812 0.015000995
0.12563083 0.11597501 0.076169066 0.060761824 0.07015247 0.03599002 -0.01092101 0.0942647
0.04699424 0.033484288 0.14469148 0.01463681 -0.027178267 0.006499227 -0.066622466 -0.047146905
0.14559643 0.02151157 -0.012218062 -0.036649715 5.1546143e-05 -0.012616601 0.0576579 0.056607667
0.0021018805 0.084937535 -0.023144124 0.024183072 -0.012966448 0.0110028675 0.025432223 -0.0031120065
0.10103136 -0.029871307 -0.027260818 -0.013594577 0.019001873 0.01169876 -0.028890051 0.011218267
-0.019768292 0.12879845 -0.03694366 -0.011382194 0.09401027 0.092591375 -0.0044412357 0.026051646
0.10140543 -0.09460134 -0.011812812 0.005992372 -0.0048339963 0.010537868 0.05762885 -0.030335333
0.007236185 -0.0024307808 0.019640677 0.022011792 -0.05464567 -0.008820692 0.037086874 -0.00963213
0.011122701 0.10459801 0.076575115 0.03380899 0.008584544 0.017322732 -0.011680514 0.009918919
0.05760263 -0.073149286 0.121081024 0.008904897 0.03875118 -0.028605837 0.17090434 0.0008867977
0.0080990875 0.036677707 0.0037760662 -0.013595187 0.044966396 0.050954707 0.04473173 -0.019662695
-0.026794743 0.026000623 -0.016649537 0.09032843 0.037822496 -0.043506343 0.11265476 0.115722895
0.025096765 0.10483329 -0.02563874 -0.029788645 0.0013148134 0.025482597 -0.013740752 0.018594716
0.14610256 0.093465954 0.06486593 -0.046614915 -0.092395775 0.13181923 -0.038224056 0.039176747
0.12421261 -0.025067685 -0.022680128 0.058505654 0.0103225615 0.028805876 -0.027406862 0.04536528
0.033346415 -0.0036183272 0.0170354 0.058448724 0.049317997 0.052548684 0.082187615 0.03129151
0.0130144525 -0.010587739 0.012028627 0.10546025 0.09582347 0.111739665 0.021585234 -0.117645994
0.039306443 0.110557705 0.11649438 -0.0051869955 0.018191325 0.021373212 -0.010772433 0.13780756
-0.11873155 -0.01565078 -0.006943211 -0.039280873 0.1456857 0.0968701 -0.082882054 0.05111483
00000000: b8c4 493b f178 14bd 37ee 98bb 3a7d f6bb
00000010: b8e9 d3bb c85f da3d 0a58 163c 41ad fd3b
00000020: d2c1 f53d 067d 20bd 6c56 613d 665d a63c
00000030: c00a 9bbd 9d43 dcbc 6923 d43d 6954 fd3d
00000040: 58da 1c3b 5b6a 153e c089 353c 21a3 55bb
00000050: 08e1 3f3d 8659 1d3d 7780 f5bd 91b1 9e3d
00000060: abaf 82bc 3e98 c43d c7c6 143e 083c 22bd
00000070: 9c0b 03bd 0682 933c 82a5 f23d bf33 493d
00000080: 9d61 5d3d d2ac 40bc d520 073e 2ba7 a13c
00000090: 1db3 363c 1dac 243c 7565 073c 8905 1fbd
000000a0: 2032 88bc f60c ab3c 828c 0f3e 84b7 82bb
000000b0: a9c4 0dbd 3c7f 063e 8bf1 843a 09f9 103e
000000c0: faa9 173d 6340 1f3d ab71 c5bb 30a6 cdbc
000000d0: 547e b93b 79e2 f53b 821d 683c bbfd 37bd
000000e0: aa8a f2bb db83 b2bc a447 a4bc 2cd5 ea3d
000000f0: eb90 8e3d 66af 7a3d fa72 8cb9 a90d f33c
00000100: fdd6 413c 3933 7db9 b27a 353d bc6a 81bc
00000110: 273a e93d 81d6 713c 73b7 03bd 1426 17bc
00000120: a1b0 92bb 6192 8f3c 812c 10bd c5ad 6ebd
00000130: bdd8 003e 65a6 873c 4125 183d e618 4abd
00000140: d2c5 c03d 735e d93d cb5e 4c3b 001a 933d
00000150: cf55 093e 056d eb3d 527c 903c 5784 fd3c
00000160: 2f07 7639 e23f 173d 7ef6 7dbc fd82 c0bc
00000170: be4f 053d 3e6f ce3d 8b89 aa3c cf1d b63c
00000180: 8840 a5bb 26a3 8dbb 238c 21bd 95b7 ea3d
00000190: 9151 ea3d 1125 5bbc e76d 3c3c bcc6 753c
000001a0: 5ea5 003e 4e84 ed3d 87fe 9b3d 64e1 783d
000001b0: 19ac 8f3d 456a 133d 09ee 32bc da0d c13d
000001c0: 087d 403d d226 093d 012a 143e 3bcf 6f3c
000001d0: f5a4 debc 78f7 d43b 5c71 88bd 1d1d 41bd
000001e0: 3b17 153e 0839 b03c 442e 48bc 031e 16bd
000001f0: 4033 5838 dcb5 4ebc b12a 6c3d 71dd 673d
00000200: b4bf 093b bbf3 ad3d bf98 bdbc 941b c63c
00000210: 3a71 54bc 5f45 343c 3d57 d03c cef2 4bbb
00000220: 88e9 ce3d acb4 f4bc 1452 dfbc cabb 5ebc
00000230: d1a9 9b3c 28ac 3f3c d4aa ecbc d2cc 373c
00000240: 1df1 a1bc bee3 033e 3c52 17bd 627c 3abc
00000250: 7588 c03d 8ca0 bd3d c987 91bb 436a d53c
00000260: a6ad cf3d 59be c1bd 868a 41bc a95b c43b
00000270: 8066 9ebb 06a7 2c3c 3b0c 6c3d ce81 f8bc
00000280: 851d ed3b bc4d 1fbb 7ce5 a03c 1352 b43c
00000290: 23d4 5fbd aa84 10bc 68e8 173d 15d0 1dbc
000002a0: fd3b 363c 7b37 d63d 6ad3 9c3d 4c7b 0a3d
000002b0: 30a6 0c3c 67e8 8d3c a05f 3fbc f682 223c
000002c0: bcf0 6b3d 4bcf 95bd 54f9 f73d d8e5 113c
000002d0: 8fb9 1e3d ca56 eabc 8c01 2f3e fc77 683a
000002e0: 09b2 043c 5d3b 163d e177 773b 59be 5ebc
000002f0: af2e 383d e2b5 503d 9e38 373d a913 a1bc
00000300: a680 dbbc 42ff d43c 9c64 88bc 1dfe b83d
00000310: c3eb 1a3d b533 32bd 8ab7 e63d 2000 ed3d
00000320: bb97 cd3c d6b2 d63d 5608 d2bc 5107 f4bc
00000330: d155 ac3a e1c0 d03c e420 61bc f253 983c
00000340: e99b 153e 146b bf3d 6ed8 843d 48ef 3ebd
00000350: ff39 bdbd 9ffb 063e d490 1cbd cc77 203d
00000360: 2e63 fe3d bf5a cdbc adcb b9bc a0a3 6f3d
00000370: f61f 293c 4dfa eb3c 5b84 e0bc f2d0 393d
00000380: 4096 083d 7521 6dbb d38d 8b3c ee67 6f3d
00000390: ab01 4a3d 4a3d 573d fb51 a83d 872b 003d
000003a0: 923a 553c 3278 2dbc b813 453c 8bfb d73d
000003b0: 183f c43d c4d7 e43d 84d3 b03c 62f0 f0bd
000003c0: cbff 203d 146c e23d 9b94 ee3d acf7 a9bb
000003d0: f905 953c e016 af3c dc7e 30bc 6d1d 0d3e
000003e0: 8729 f3bd 1136 80bc e083 e3bb fbe4 20bd
000003f0: a22e 153e d563 c63d 11be a9bd c95d 513d

layers.1.weight f4 [128, 256]
-0.024703953 -0.028388089 -0.06651806 0.080793604 -0.014164024 0.03644062 -0.08058468 -0.08960079
0.073435605 -0.05357335 -0.10516552 -0.11039922 0.03774005 0.05200683 0.009662445 0.0065640355
0.06578455 0.113804355 -0.015370733 -0.17887011 -0.050058503 0.1490032 -0.33322915 0.022720221
0.00055884745 0.029006504 0.11058656 0.011422605 0.07176381 0.22872178 0.024927486 -0.022862013
0.016391132 0.12872732 0.090625204 0.037780274 0.09750585 -0.022821203 -0.0004061395 -0.02731695
-0.0120906625 0.048597936 0.11542281 -0.013659968 0.1690444 0.059340943 0.007293464 0.09337355
-0.008962724 0.07273513 0.2796672 0.058036238 -0.03369003 -0.04401038 0.085075624 -0.03783472
0.018339219 -0.027739853 0.020504875 0.06434062 -7.108548e-05 -0.012839619 -0.047967598 -0.068194285
0.055425674 0.11684106 -0.01393794 -0.0016226163 -0.075722694 -0.049021356 -0.011892529 0.0072890506
-0.036683742 0.114432044 0.0043586916 -0.034903325 0.026596444 -0.0453257 0.043116108 0.0041165105
-0.025258793 0.054141637 0.05427092 -0.102183625 0.12544534 0.055610064 0.17418313 0.014366002
0.13771315 -0.012402329 0.015677083 0.10267625 0.03213711 0.04059904 -0.07341028 0.056450482
0.034045674 -0.0478428 0.054679174 -0.017135546 -0.0020917868 0.103762716 0.1543038 -0.10939158
0.03978794 0.12197205 0.0013510981 0.07270472 0.0121429525 -0.09045569 -0.040961705 0.005515903
-0.05582144 -0.00028221807 0.0040252036 0.038883857 -0.039724186 -0.023568558 0.12031816 0.008575316
0.056943554 0.012522706 -0.052653443 0.24568507 -0.021254392 -0.07352176 -0.004260361 0.035505667
-0.048704177 0.10699567 0.11104316 0.037466396 0.053031232 -0.112586014 0.13944402 -0.049369145
0.007836295 -0.00735045 0.2089046 -0.110490665 0.13212398 0.1744635 -0.03631786 -0.11548797
0.06515362 -0.013866549 0.17133375 0.22629574 0.14953087 -0.036827125 -0.16394576 0.055910785
0.11940694 -0.081535 0.10838272 -0.027558787 0.008290048 -0.04499666 0.037811343 -0.107209936
-0.010084671 -0.034076665 0.053749315 -0.023986273 -0.014320962 -0.00049627194 -0.036760803 -0.01961464
-0.1250837 0.00033549394 0.009840684 0.025203336 0.06792025 0.14576875 -0.026375396 0.07596118
-0.070017226 -0.0016725136 -0.11475311 -0.025642652 0.023261422 -0.13355973 0.1307829 0.017551225
0.14958404 0.09546452 0.1830794 -0.10066966 0.1342257 0.026719382 -0.010854826 0.076275826
0.049189053 -0.023285596 0.026075061 0.019203197 -0.09761241 0.13109489 0.028127769 0.07414942
0.11534069 0.12685622 0.08126873 0.04806757 -0.063181795 -0.03213991 0.06611904 0.007308995
0.04855242 0.026185973 0.029692942 0.018171433 -0.10345291 0.1381323 0.009819766 0.026184754
0.02086316 0.011779274 0.17505504 -0.062390164 0.069795094 -0.09858921 0.082761616 -0.027874073
-0.042066652 -0.03880078 0.018928712 -0.117390335 -0.008558021 0.006246899 -0.04177605 -0.060891353
0.007355594 0.14460778 -0.030469185 0.016418165 0.049419932 0.036501706 -0.16429538 -0.3083784
-0.036406737 0.008907228 0.024397034 0.051072553 -0.12676716 -0.004333282 -0.09193751 0.04252959
-0.29936212 0.095739454 -0.055502873 -0.036513396 0.051355388 0.11758061 -0.06074262 -0.041664466
00000000: f25f cabc 238e e8bc 9f3a 88bd 1e77 a53d
00000010: 3910 68bc c242 153d 9509 a5bd 9e80 b7bd
00000020: 6865 963d bb6f 5bbd 0561 d7bd fc18 e2bd
00000030: 5095 1a3d 1d05 553d 3b4f 1e3c 1f17 d73b
00000040: 0dba 863d 4212 e93d 87d5 7bbc ba29 37be
00000050: 250a 4dbd 4b94 183e 039d aabe c21f ba3c
00000060: 9e7f 123a 0c9f ed3c 357b e23d e125 3b3c
00000070: e8f8 923d 0b36 6a3e ba34 cc3c 1e49 bbbc
00000080: b246 863c 18d1 033e b599 b93d 7dbf 1a3d
00000090: 26b1 c73d 88f3 babc 1fef d4b9 ccc7 dfbc
000000a0: ea17 46bc a10e 473d cb62 ec3d 0fce 5fbc
000000b0: fa19 2d3e 7d0f 733d 03fe ee3b a23a bf3d
000000c0: 64d8 12bc 28f6 943d 8a30 8f3e 68b7 6d3d
000000d0: 8ffe 09bd 3a44 34bd 213c ae3d 94f8 1abd
000000e0: 213c 963c b03e e3bc d7f9 a73c 04c5 833d
000000f0: ba13 95b8 445d 52bc ac79 44bd 72a9 8bbd
00000100: 0806 633d 5e4a ef3d f55b 64bc f8ad d4ba
00000110: 8014 9bbd 9eca 48bd e2d8 42bc fdd8 ee3b
00000120: b141 16bd 595b ea3d 5bd3 8e3b caf6 0ebd
00000130: c9e0 d93c 71a7 39bd 849a 303d cbe3 863b
00000140: 87eb cebc 9fc3 5d3d 2f4b 5e3d a645 d1bd
00000150: be74 003e 61c7 633d 105d 323e 615f 6b3c
00000160: ad04 0d3e 2333 4bbc 3a6d 803c ed47 d23d
00000170: 34a2 033d 2e4b 263d 2158 96bd 9f38 673d
00000180: 7a73 0b3d d0f6 43bd 45f7 5f3d d85f 8cbc
00000190: 5c16 09bb 8c81 d43d d101 1e3e b108 e0bd
000001a0: aef8 223d 7bcc f93d 5417 b13a 36e6 943d
000001b0: 3cf3 463c d540 b9bd 76c7 27bd bfbe b43b
000001c0: 06a5 64bd abf6 93b9 dbe5 833b ae44 1f3d
000001d0: d4b5 22bd d912 c1bc 5e69 f63d 7b7f 0c3c
000001e0: a53d 693d 092c 4d3c 23ab 57bd de94 7b3e
000001f0: b11d aebc 9492 96bd 809a 8bbb 646e 113d
00000200: 087e 47bd 8c20 db3d 996a e33d 5d76 193d
00000210: 4737 593d 7f93 e6bd 6aca 0e3e 4d37 4abd
00000220: ce63 003c 0bdc f0bb 16eb 553e ee48 e2bd
00000230: 824b 073e 8fa6 323e 09c2 14bd f584 ecbd
00000240: 436f 853d 8630 63bc 1d72 2f3e 12ba 673e
00000250: 9f1e 193e 0ad8 16bd 66e1 27be b502 653d
00000260: a08b f43d d2fb a6bd c2f7 dd3d f7c2 e1bc
00000270: fbd2 073c 6b4e 38bd 11e0 1a3d e290 dbbd
00000280: 2d3a 25bc f993 0bbd 3e28 5c3d dc7e c4bc
00000290: 78a2 6abc 3f18 02ba 7f92 16bd e2ae a0bc
000002a0: f115 00be 3ce5 af39 d23a 213c 3a77 ce3c
000002b0: c619 8b3d 6744 153e 3711 d8bc 8991 9b3d
000002c0: 3165 8fbd 3e38 dbba ae03 ebbd 8a10 d2bc
000002d0: bd8e be3c e2c3 08be f4eb 053e 96c7 8f3c
000002e0: 8f2c 193e e782 c33d 2b79 3b3e e52b cebd
000002f0: 7672 093e 9be2 da3c 71d8 31bc 8036 9c3d
00000300: 767a 493d 6fc1 bebc 5e9b d53c 0650 9d3c
00000310: 04e9 c7bd bd3d 063e 356c e63c a7db 973d
00000320: bd37 ec3d 99e6 013e 3870 a63d 80e2 443d
00000330: 7565 81bd 23a5 03bd 6b69 873d 4b80 ef3b
00000340: e7de 463d f783 d63c 9d3e f33c 42dc 943c
00000350: 1fdf d3bd 8e72 0d3e 15e3 203c 6981 d63c
00000360: 38e9 aa3c dbfd 403c a141 333e d48c 7fbd
00000370: bbf0 8e3d 24e9 c9bd ec7e a93d 2b58 e4bc
00000380: 154e 2cbd 91ed 1ebd 6310 9b3c 586a f0bd
00000390: f136 0cbc c9b2 cc3b 5d1d 2bbd 3669 79bd
000003a0: 3207 f13b 1014 143e 839a f9bc 637f 863c
000003b0: 8e6c 4a3d d082 153d 0c3d 28be c6e3 9dbe
000003c0: 3b1f 15bd 9fef 113c 4adc c73c 7431 513d
000003d0: 40cf 01be 34fe 8dbb bc49 bcbd 8233 2e3d
000003e0: fe45 99be 0c13 c43d fb56 63bd 128f 15bd
000003f0: 075a 523d 1ace f03d 41cd 78bd 5ca8 2abd

layers.1.bias f4 [128]
0.026603721 -0.04812918 0.097579174 -0.030989131 0.12785962 0.20078708 -0.00801992 0.035811733
0.00830792 0.03119156 -0.061192457 0.06352223 0.1918542 0.13379043 0.114339836 0.08384055
0.14948848 0.12451389 0.0777309 -0.022204472 0.03436342 0.009375992 -0.016151872 0.09995455
0.14777672 0.0037556335 0.07024547 0.050591704 0.14915814 0.16072483 0.15683669 0.16849189
0.03257489 0.04736336 0.112272285 -0.0020516515 0.004515805 -0.02559371 0.1257707 0.085582905
0.1368221 0.09505687 0.1634212 0.0113991 0.05485746 -0.033659473 0.10808816 -0.007651158
0.002064564 0.0049667726 0.10616208 0.14988239 0.05651388 0.091188066 0.0009489637 0.0873218
0.13555224 -0.003330434 0.019800669 0.06359423 0.06838714 0.008402319 0.17176567 0.14453627
0.1057597 -0.0075668665 0.054540183 0.041745223 0.103762284 0.132899 0.09290553 0.16291986
0.08144202 0.09219317 0.007875695 0.18461798 0.09088146 0.08641466 0.09631643 -0.032602098
0.09154264 -0.011250443 0.014086963 0.08423447 0.09882644 0.13880777 0.044992603 0.12911567
0.12778217 0.0308288 0.15230316 0.025413897 0.12534189 -0.04716552 0.06337259 0.02903978
0.040418927 -0.001921625 0.10822701 0.14996469 0.005754253 0.115545675 -0.03263416 0.03901201
0.074157506 0.014371329 0.085317224 0.11225113 0.06993708 -0.0048195384 0.1282379 0.09884443
0.07936352 0.01838107 0.0040645087 0.11690468 0.037211027 0.055089675 0.16812445 0.1326384
0.039727792 0.08353474 0.1309827 0.07410962 0.12693664 0.083479196 0.10775678 0.11434511
00000000: 0cf0 d93c 1a23 45bd 97d7 c73d ebdc fdbc
00000010: a2ed 023e 219b 4d3e fc65 03bc 53af 123d
00000020: f11d 083c 7185 ff3c f1a4 7abd f117 823d
00000030: 6d75 443e 5c00 093e 012b ea3d 98b4 ab3d
00000040: 8213 193e 2301 ff3d 6131 9f3d 27e6 b5bc
00000050: a8c0 0c3d c39d 193c ee50 84bc f9b4 cc3d
00000060: c852 173e 1321 763b dbdc 8f3d 3f39 4f3d
00000070: e9bc 183e 0d95 243e cc99 203e 2389 2c3e
00000080: 3f6d 053d 1500 423d 03ef e53d 0075 06bb
00000090: 51f9 933b e6a9 d1bc 09ca 003e 1746 af3d
000000a0: 181b 0c3e 2dad c23d e357 273e 4ac3 3a3c
000000b0: 37b2 603d 84de 09bd 535d dd3d 91b6 fabb
000000c0: a34d 073b 4fc0 a23b 816b d93d c57a 193e
000000d0: 197b 673d cfc0 ba3d e0c3 783a c6d5 b23d
000000e0: 35ce 0a3e 6943 5abb 0335 a23c b13d 823d
000000f0: 8f0e 8c3d e1a9 093c 57e3 2f3e 5101 143e
00000100: 8b98 d83d 7af3 f7bb 8765 5f3d 0afd 2a3d
00000110: 5281 d43d ad16 083e 4145 be3d 77d4 263e
00000120: 13cb a63d c6cf bc3d 0f09 013c 7f0c 3d3e
00000130: 0f20 ba3d 2bfa b03d 8c41 c53d c789 05bd
00000140: b57a bb3d c753 38bc 01cd 663c 1f83 ac3d
00000150: 8465 ca3d a023 0e3e 2a4a 383d e636 043e
00000160: 54d9 023e ae8c fc3c 5cf5 1b3e ce30 d03c
00000170: a059 003e a230 41bd 7dc9 813d d5e4 ed3c
00000180: 518e 253d 09df fbba 1fa6 dd3d 5890 193e
00000190: 2c8e bc3b 36a3 ec3d 66ab 05bd 0fcb 1f3d
000001a0: e4df 973d b975 6b3c ccba ae3d ece3 e53d
000001b0: 2c3b 8f3d 38ed 9dbb cc50 033e f36e ca3d
000001c0: 5789 a23d e693 963c 922f 853b b96b ef3d
000001d0: 976a 183d b6a5 613d d128 2c3e 5cd2 073e
000001e0: 9cb9 223d 4314 ab3d 5420 063e c9c6 973d
000001f0: aefb 013e 24f7 aa3d 96af dc3d c52d ea3d

layers.2.weight f4 [64, 128]
0.0052921367 0.3500188 -0.0043483707 -0.65494376 -0.09545842 -0.0014105126 -0.040248938 -0.01894022
-0.0020465616 1.2758116 0.25803858 -0.13059956 0.017225062 0.030773213 0.0542611 0.084730804
0.096800394 0.038911454 0.051045567 -1.188573 0.102250285 0.15232964 -0.031582754 -0.2127183
0.061532535 -0.05334942 0.10808379 0.074004725 0.030231012 -0.09472751 0.024146229 0.047163248
0.11125409 -0.7271088 0.07463509 -0.6647127 0.053879384 0.5120885 0.05735043 0.03252735
0.036862355 -0.00452263 0.01512841 0.54656726 -0.23364893 0.4944009 -0.25696847 0.0052085277
-0.073382035 -0.023509726 0.0048272423 0.019314973 -0.0634734 -0.09323255 0.14644355 0.006945611
-0.025566556 0.049701944 -0.45310324 0.20800325 0.05458668 0.3093799 -0.03885496 0.0604848
-0.050668042 0.12678969 0.13276614 -0.03722162 -0.0040265145 -0.02906316 0.07316362 -0.04160994
-0.0072324052 0.03205817 0.19033806 -0.0010825119 -0.0070884135 0.03404661 -0.015414158 0.09551397
-0.08219731 0.3794303 -0.15656476 0.018625144 0.06194103 0.027961653 0.07801429 -0.0014926755
0.07038776 0.04043336 0.0003168156 0.18697782 -0.03721989 -0.7329312 0.018902771 0.12115475
-0.35228878 -0.88768065 -0.12439111 0.0072758705 0.056110118 -0.035577994 0.07300843 -0.60408986
0.023007683 0.27237272 -0.004766263 -0.16394947 -0.103009276 0.061842952 0.1029755 0.03292626
-0.07800088 0.010225813 0.16076458 0.0072306315 0.11931525 -0.35781324 0.028735934 0.01696929
0.17568141 -0.255898 -0.063577436 0.06208493 0.022318792 0.04461097 0.070769355 -0.012656868
-0.056656707 -0.8819537 -0.090809435 0.33638692 -0.11609934 0.04356849 0.021465696 0.20153978
0.6192327 -0.15794475 -0.7080476 0.3744819 0.011545621 -0.09677882 0.10127689 -0.068271026
0.041750375 -0.072252244 0.15153043 1.1148778 -0.15988353 0.9316859 -0.7021726 0.13644652
0.067882285 -0.34856144 0.0150001515 -0.26356843 -0.0024443686 0.0295491 -0.08130325 0.07599484
-0.07774671 -0.20931423 0.09506714 0.2904792 0.3589795 -0.10605883 0.100506335 0.030509409
0.046836536 0.039556786 -0.021853892 -0.117572725 0.07470719 -1.1136858 -0.08791367 -0.2701251
0.43264905 0.28874308 0.061957117 -0.046654154 -0.53498 -0.14200364 -0.30879018 0.10018073
0.028154789 0.20220223 0.104570866 -0.018559877 0.031757265 -0.14565058 -0.0088252025 -0.006550332
0.041614477 -0.076583005 -0.0066105346 0.16623536 0.06584271 0.027853163 0.09632726 0.07204342
0.10122673 0.07872958 0.02846641 0.014898962 -0.0008071476 -0.026909146 0.014684126 0.07611926
-0.047727093 -1.5604 0.97842467 -0.034627058 -0.00405105 0.08250889 0.22045356 0.023561316
-0.03231706 -0.16892903 0.08274078 0.04925607 -0.014553997 0.9787682 -0.018484522 0.2141906
-0.10356282 -0.0091026705 -0.16357003 0.021986678 -0.0075884108 -0.07960146 0.06181915 0.12759504
0.029771723 -0.0016336268 -0.18749547 -0.058149047 0.045578472 0.07547588 -0.129623 -0.015925478
0.06976918 1.2410635 0.15603642 0.079709195 0.1278153 0.19430079 -0.074012525 0.10784046
-0.1421179 -0.13050403 0.07807066 -0.07509909 -0.01354311 0.015469043 -0.11025325 0.097222775
00000000: a969 ad3b aa35 b33e c77c 8ebb 65aa 27bf
00000010: b47f c3bd f3e0 b8ba 12dc 24bd 8528 9bbc
00000020: 9b1f 06bb cb4d a33f a21d 843e e4bb 05be
00000030: 931b 8d3c 1b18 fc3c e340 5e3d 5887 ad3d
00000040: 493f c63d 9e61 1f3d 2815 513d 2923 98bf
00000050: 9968 d13d 4dfc 1b3e eb5c 01bd d3d2 59be
00000060: 8a09 7c3d ec84 5abd 095b dd3d ca8f 973d
00000070: 07a7 f73c 7f00 c2bd 50ce c53c 402e 413d
00000080: 2fd9 e33d cd23 3abf 48da 983d 9d2a 2abf
00000090: a1b0 5c3d 3b18 033f 49e8 6a3d 663b 053d
000000a0: fbfc 163d 9232 94bb 27dd 773c d5eb 0b3f
000000b0: aa41 6fbe 1d22 fd3e 5f91 83be 4cac aa3b
000000c0: 5249 96bd 7897 c0bc d82d 9e3b 6f3a 9e3c
000000d0: 58fe 81bd b5f0 bebd 4cf5 153e 0298 e33b
000000e0: f470 d1bc 4494 4b3d 26fd e7be cefe 543e
000000f0: 4896 5f3d 0b67 9e3e 6126 1fbd e9be 773d
00000100: 4b89 4fbd 28d5 013e d9f3 073e b375 18bd
00000110: daf0 83bb dd15 eebc cfd6 953d 2f6f 2abd
00000120: d0fd ecbb 6d4f 033d fbe7 423e 12e3 8dba
00000130: ec45 e8bb 7574 0b3d aa8b 7cbc d49c c33d
00000140: 1057 a8bd b044 c23e 8352 20be c293 983c
00000150: e1b5 7d3d d60f e53c f5c5 9f3d e1a5 c3ba
00000160: 7527 903d 739d 253d 451a a639 1d77 3f3e
00000170: e273 18bd 61a1 3bbf fcd9 9a3c fb1f f83d
00000180: 325f b4be 0a3f 63bf c4c0 febd 6d6a ee3b
00000190: b9d3 653d 3bba 11bd 7285 953d a2a5 1abf
000001a0: 9c7a bc3c 7074 8b3e 502e 9cbb 5fe2 27be
000001b0: 87f6 d2bd 094f 7d3d d2e4 d23d b0dd 063d
000001c0: edbe 9fbd 2b8a 273c 789f 243e efee ec3b
000001d0: 8e5b f43d 4c33 b7be 9f67 eb3c 2e03 8b3c
000001e0: d4e5 333e 1005 83be e334 82bd c44c 7e3d
000001f0: e6d5 b63c feb9 363d 86ef 903d c15e 4fbc
00000200: dd10 68bd b8c7 61bf 4cfa b9bd e83a ac3e
00000210: 7ec5 edbd df74 323d d4d8 af3c 7260 4e3e
00000220: 0986 1e3f 45bc 21be 9c42 35bf 17bc bf3e
00000230: d829 3d3c f933 c6bd 426a cf3d aed1 8bbd
00000240: 7102 2b3d fcf8 93bd cb2a 1b3e 51b4 8e3f
00000250: 82b8 23be f882 6e3f 95c1 33bf a3b8 0b3e
00000260: de05 8b3d a576 b2be 32c3 753c 71f2 86be
00000270: b331 20bb f410 f23c 5182 a6bd 2fa3 9b3d
00000280: ab39 9fbd 7856 56be 90b2 c23d b1b9 943e
00000290: 29cc b73e 5f35 d9bd 44d6 cd3d deee f93c
000002a0: abd7 3f3d 4c06 223d ef06 b3bc f8c9 f0bd
000002b0: 1500 993d 428d 8ebf 150c b4bd d64d 8abe
000002c0: 2d84 dd3e 22d6 933e bfc6 7d3d 6d18 3fbd
000002d0: 73f4 08bf 6769 11be bf19 9ebe 8e2b cd3d
000002e0: dfa4 e63c 1a0e 4f3e 4029 d63d e20a 98bc
000002f0: e813 023d 6d25 15be 9597 10bc 2ba4 d6bb
00000300: f173 2a3d 8dd7 9cbd 2f9d d8bb 9a39 2a3e
00000310: 8bd8 863d 512c e43c 3a47 c53d 808b 933d
00000320: f64f cf3d f93c a13d 6332 e93c c71a 743c
00000330: c296 53ba 9270 dcbc b095 703c 6ae4 9b3d
00000340: 7c7d 43bd 30bb c7bf 0a7a 7a3f 1ad5 0dbd
00000350: acbe 84bb 6cfa a83d 94be 613e a903 c13c
00000360: e55e 04bd bbfb 2cbe 0074 a93d bcc0 493d
00000370: e373 6ebc 8e90 7a3f da6c 97bc c854 5b3e
00000380: be18 d4bd 5e23 15bc e77e 27be 681d b43c
00000390: 34a8 f8bb 1706 a3bd 1436 7d3d 46a8 023e
000003a0: d4e3 f33c 6b1f d6ba d0fe 3fbe b22d 6ebd
000003b0: 7eb0 3a3d 1993 9a3d e4bb 04be 2676 82bc
000003c0: 25e3 8e3d 2bdb 9e3f 03c8 1f3e 933e a33d
000003d0: 04e2 023e c9f6 463e e193 97bd 76db dc3d
000003e0: 5b87 11be d9a2 05be 83e3 9f3d 8dcd 99bd
000003f0: ece3 5dbc de71 7d3c 75cc e1bd bc1c c73d

layers.2.bias f4 [64]
0.005778937 -0.04293311 0.040815104 -0.0008670536 0.0031373755 -0.018482048 -0.039044157 0.06534198
-0.0072400435 0.24434212 -0.013303587 0.07713961 -0.057120208 0.09134058 -0.034245778 0.11698049
0.007418436 -0.021761457 0.2054511 -0.0054214783 0.0633718 0.1296019 0.2596722 0.1663944
0.17593251 -0.04261586 0.091944054 0.061112005 0.051673528 -0.028387843 0.01982772 0.011980215
-0.0064305332 0.2733474 0.16596663 -0.036041167 -0.027697379 0.006064416 0.015560334 0.13903965
-0.03736583 -0.03229342 0.044123694 0.20030062 -0.030688696 0.1854669 -0.01907394 -0.03176448
-0.07645611 0.12880807 -0.028555788 0.1752551 0.20799482 -0.0310093 0.15750338 0.15509416
-0.0013212594 0.050558664 -0.019797852 -0.015897917 0.024260271 0.070688516 0.008505473 -0.056475244
00000000: 3d5d bd3b a1da 2fbd bd2d 273d fb4a 63ba
00000010: 6d9c 4d3b aa67 97bc c4ec 1fbd 04d2 853d
00000020: e33d edbb d234 7a3e 4af7 59bc 5ffb 9d3d
00000030: e1f6 69bd c510 bb3d 4d45 0cbd 7893 ef3d
00000040: 5a16 f33b 1545 b2bc c661 523e a8a6 b1bb
00000050: 13c9 813d 5cb6 043e c1f3 843e 4b63 2a3e
00000060: a727 343e f88d 2ebd 2a4d bc3d 9550 7a3d
00000070: 9fa7 533d 9f8d e8bc be6d a23c aa48 443c
00000080: 39b7 d2bb 31f4 8b3e 28f3 293e e79f 13bd
00000090: 9de5 e2bc 02b8 c63b c5f0 7e3c 6960 0e3e
000000a0: ea0c 19bd 1b46 04bd 0cbb 343d 9b1b 4d3e
000000b0: dc66 fbbc 09eb 3d3e f440 9cbc 791b 02bd
000000c0: 0595 9cbd 43e6 033e d4ed e9bc 1376 333e
000000d0: 98fc 543e 3707 febc 9148 213e 01d1 1e3e
000000e0: 1c2e adba 9a16 4f3d 1b2f a2bc 593c 82bc
000000f0: 7abd c63c 24c5 903d 8a5a 0b3c 9652 67bd

layers.3.weight f4 [32, 64]
-0.14760177 -0.039451078 -0.19234568 -0.1210152 -0.0115044275 -0.019213889 -0.18064459 0.18616074
-0.018058674 0.09243869 -0.08933534 0.1842662 -0.18699358 0.08982779 -0.043259658 0.044060126
-0.1635036 -0.029493071 0.02412773 -0.03524567 0.03307724 0.17378476 0.046164796 0.060235593
0.1531578 0.0085523 0.12835662 0.16074629 0.12145698 -0.023183445 -0.04910911 -0.26789314
0.02060582 0.10364867 0.053892087 -0.06047502 -0.021815252 -0.32249588 0.0035762312 0.10644002
-2.8498414 -0.15793818 0.068452574 0.065085754 -0.03626329 0.13231644 -0.026682101 -0.27490786
-0.02584056 0.052145775 0.060251914 0.044712014 0.16966279 0.080041565 0.18151051 0.11412868
0.29584262 0.11061574 -0.037589643 0.01178438 -0.08186547 0.16103779 -1.4582869 -0.18865862
0.11472594 0.009564748 0.15410282 -0.068840526 0.1565845 -0.005907989 0.15729164 0.03756425
0.02666452 0.028162427 -0.014124773 -0.080036625 0.2660493 -0.24248335 -0.036978006 0.06191576
-0.065062225 -0.05537908 -0.048554074 -0.97572213 -0.011492667 -0.047499124 0.12013535 -0.010872069
-0.036701724 0.12064719 -0.006765411 -0.026471242 -0.4076856 -0.035925098 0.050170742 -0.1251244
-0.019709814 0.10299833 0.061072554 0.3694212 0.010894494 -0.10424783 -0.13095266 0.0058709434
-0.05464572 0.12377714 -0.55771893 -0.04421405 0.039868012 -0.06240721 -0.062103335 -0.39591283
0.26997286 -0.041685224 0.005367131 0.010553946 -0.042929318 0.060857855 -0.054078083 -0.0013809219
0.76405483 -0.26933476 0.065764144 -0.042573936 0.0122529175 -0.13734949 0.08394401 -0.23268145
0.2009275 0.047899637 0.24271457 0.17826682 0.15172444 0.050036833 0.13475586 -0.049535897
0.08013613 0.024787445 0.18003488 -0.12511031 0.10787308 -0.1101024 -0.036566578 0.118926376
0.15975611 -0.061028905 -0.036519244 -0.21882887 -0.200732 0.001991386 -0.04507832 0.09297461
-0.014610895 0.2308422 0.04027029 -0.03454686 -0.096954174 0.034942057 0.13160485 0.12577061
0.00048573274 0.0007459626 -0.061697863 0.45602524 0.04368536 0.15815619 -0.23336698 0.07822497
-0.12225454 0.17009933 -0.04470198 0.06219029 0.034629513 0.0034651805 0.051132664 -0.3468114
0.19248989 0.049925923 0.041681238 0.046202656 -0.023551498 -0.042355392 0.005880727 -0.0014230927
-0.31102204 -0.09052493 0.1045382 0.049702235 0.07673158 -0.25149867 -0.082623534 -0.26727206
-0.99938554 0.16648544 -0.9166169 0.13553959 -1.2613223 0.012304901 -1.1398243 -0.1181078
-0.98560077 0.13791871 0.09211372 -0.056215476 -0.25679746 0.017827865 0.009639533 0.078459874
0.102867946 0.012337334 0.11352194 -0.07824429 -0.21414012 0.024089104 0.076484784 0.12711322
0.05296902 -0.56396115 0.03634587 -0.106790245 0.016652023 0.008059804 -2.0235672 0.059314236
-0.0064452244 0.028813688 0.14491205 -0.66031796 0.0010742832 0.056719285 -0.11588515 0.020685151
0.13927215 -0.7769629 0.058786035 0.11296888 -0.039522536 -0.006843853 0.14117543 -0.13046966
-0.2591433 0.11107173 0.042713024 0.12670787 0.019969985 -0.07687465 0.068125196 -0.023859996
-0.055300772 -0.09092498 -1.0468578 0.03362765 0.14998181 -0.13436498 -0.010667879 -0.046301503
00000000: eb24 17be 7497 21bd 44f6 44be d1d6 f7bd
00000010: 117d 3cbc 7266 9dbc e5fa 38be eca0 3e3e
00000020: c9ef 93bc 7f50 bd3d 72f5 b6bd 47b0 3c3e
00000030: 3f7b 3fbe a2f7 b73d 0a31 31bd 6478 343d
00000040: 7d6d 27be 749b f1bc 84a7 c53c c35d 10bd
00000050: 007c 073d a2f4 313e 4c17 3d3d 99b9 763d
00000060: 66d5 1c3e f21e 0c3c eb6f 033e ad9a 243e
00000070: 70be f83d 35eb bdbc a226 49bd 4a29 89be
00000080: 89cd a83c c145 d43d f3bd 5c3d a8b4 77bd
00000090: e6b5 b2bc 2e1e a5be 345f 6a3b 3afd d93d
000000a0: cd63 36c0 8cba 21be dd30 8c3d ae4b 853d
000000b0: d188 14bd f67d 073e 6c94 dabc b9c0 8cbe
000000c0: 95af d3bc cf96 553d b6ca 763d f223 373d
000000d0: 15bc 2d3e d5ec a33d e4dd 393e 4cbc e93d
000000e0: af78 973e 818a e23d 99f7 19bd 4613 413c
000000f0: 15a9 a7bd 17e7 243e 25a9 babf ba2f 41be
00000100: 6ff5 ea3d 76b5 1c3c 21cd 1d3e 43fc 8cbd
00000110: b057 203e ce97 c1bb 0f11 213e f9dc 193d
00000120: 8d6f da3c e4b4 e63c 986b 67bc 3eea a3bd
00000130: 9d37 883e 8e4d 78be 4076 17bd 619b 7d3d
00000140: 583f 85bd 2dd5 62bd a3e0 46bd edc8 79bf
00000150: bd4b 3cbc 718e 42bd 8609 f63d c320 32bc
00000160: 8c54 16bd e015 f73d 61b0 ddbb 38da d8bc
00000170: 2bbc d0be 3226 13bd d67f 4d3d 9c20 00be
00000180: 7a76 a1bc caf0 d23d 3727 7a3d c724 bd3e
00000190: d27e 323c e37f d5bd 7418 06be 0b61 c03b
000001a0: 31d4 5fbd df7e fd3d abc6 0ebf cb19 35bd
000001b0: a44c 233d b49e 7fbd 1160 7ebd 16b5 cabe
000001c0: e239 8a3e 20be 2abd c2de af3b 75ea 2c3c
000001d0: a7d6 2fbd 1646 793d fb80 5dbd 0d00 b5ba
000001e0: 1999 433f 3fe6 89be 5aaf 863d 0262 2ebd
000001f0: 76c0 483c 58a5 0cbe d6ea ab3d 0c44 6ebe
00000200: f0bf 4d3e 6932 443d 2b8a 783e 948b 363e
00000210: a75d 1b3e 6cf3 4c3d 71fd 093e 27e6 4abd
00000220: 691e a43d 0a0f cb3c 105b 383e eb1c 00be
00000230: 90ec dc3d 5e7d e1bd d6c6 15bd ac8f f33d
00000240: 1b97 233e 72f9 79bd 3495 15bd ad14 60be
00000250: b08c 4dbe ea81 023b 0ba4 38bd 7969 be3d
00000260: 8962 6fbc e661 6c3e 76f2 243d 0281 0dbd
00000270: e98f c6bd 671f 0f3d 6cc3 063e 03ca 003e
00000280: f2a9 fe39 b48c 433a e6b6 7cbd 247c e93e
00000290: 6cef 323d b2f3 213e c1f7 6ebe 6a34 a03d
000002a0: 9760 fabd 852e 2e3e 6c19 37bd 3fbb 7e3d
000002b0: add7 0d3d 1518 633b 7c70 513d 4491 b1be
000002c0: 121c 453e 207f 4c3d f2b9 2a3d ff3e 3d3d
000002d0: 12ef c0bc d97c 2dbd 1db3 c03b 1187 baba
000002e0: 483e 9fbe 2265 b9bd 2018 d63d 9294 4b3d
000002f0: 7225 9d3d 6fc4 80be 8736 a9bd e2d7 88be
00000300: bbd7 7fbf 297b 2a3e 68a7 6abf e4ca 0a3e
00000310: 0273 a1bf 7f9a 493c c3e5 91bf 81e2 f1bd
00000320: 5550 7cbf 903a 0d3e 1ea6 bc3d 3342 66bd
00000330: f57a 83be be0b 923c 22ef 1d3c 92af a03d
00000340: 6eac d23d 8822 4a3c 317e e83d 8b3e a0bd
00000350: 8c47 5bbe 8356 c53c 0ea4 9c3d f829 023e
00000360: 0bf6 583d c25f 10bf 68df 143d d8b4 dabd
00000370: d369 883c 450d 043c 2082 01c0 7cf3 723d
00000380: 7632 d3bb af0a ec3c d363 143e 990a 29bf
00000390: f6ce 8c3a 7b52 683d 3255 edbd e873 a93c
000003a0: 5c9d 0e3e 0ae7 46bf a0c9 703d 3a5c e73d
000003b0: 62e2 21bd 6642 e0bb 4b90 103e d799 05be
000003c0: 6eae 84be 9379 e33d daf3 2e3d b5bf 013e
000003d0: 1898 a33c 7570 9dbd 3985 8b3d 0a76 c3bc
000003e0: 1083 62bd e036 babd 70ff 85bf 26bd 093d
000003f0: d594 193e f996 09be 54c8 2ebc a5a6 3dbd

layers.3.bias f4 [32]
0.17738271 0.022983693 0.03632601 0.086006835 0.15610313 0.06653229 0.06287901 0.04919553
0.032715205 0.20970507 0.03165981 0.063832656 0.22176586 0.018011441 -0.03447805 -0.056948416
-0.008345243 0.011019526 -0.009946927 -0.045033716 -0.124085665 0.026464911 0.105534896 0.22958952
0.0026857266 -0.044820655 0.027905032 -0.0011380598 0.088644184 -0.022476682 0.1287897 0.10245406
00000000: d0a3 353e 4c48 bc3c 95ca 143d 5a24 b03d
00000010: 80d9 1f3e 1542 883d b6c6 803d 4181 493d
00000020: 6100 063d edbc 563e b8ad 013d b2ba 823d
00000030: 9716 633e bb8c 933c db38 0dbd be42 69bd
00000040: 7cba 08bc 3e8b 343c 70f8 22bc 4675 38bd
00000050: a020 febd f1cc d83c ae22 d83d 8419 6b3e
00000060: 0403 303b dd95 37bd 1899 e43c f32a 95ba
00000070: 158b b53d 0521 b8bc 72e1 033e 6fd3 d13d

output_layer.weight f4 [3, 32]
0.44472867 0.27003774 -0.11591221 0.11671119 0.09608613 0.07269639 -0.05670614 -0.61552286
0.024840916 0.32628188 -0.19945265 0.25557533 0.08461983 0.11187113 -0.27241307 -0.61789757
-0.609131 0.016767807 -0.63562006 -0.087724626 0.37663823 0.101615965 -0.12141422 0.228801
-0.046703972 0.048399847 -0.63012713 0.369487 0.17541842 -0.6092622 0.29365468 0.08922685
0.10702876 -0.1462544 -0.24751548 0.6239569 0.5703884 0.16098383 -0.2658555 -0.047719534
0.58571684 0.10447153 0.46619353 -0.13035896 0.10355027 -0.3452405 0.0013903778 0.071018465
0.0076550758 0.087416336 -0.12088281 -0.044318017 -0.35245955 0.024496373 0.78777295 0.15902741
0.05049724 -0.3595065 -0.042554732 0.025223885 0.041324038 0.082537614 -0.114888795 0.1530718
0.12494868 -0.3563776 -0.2936211 0.048135787 0.015323751 0.64586896 0.5400848 -0.13497964
-0.1870333 0.21295609 0.022764442 0.080139324 0.5836549 0.10059926 -0.6642814 0.22655818
0.10163801 -0.51985323 -0.15455513 0.749251 -0.17965403 -0.52718353 -0.0057549262 0.29332885
-0.0014909263 -0.019801363 -0.03500691 0.11576721 -0.46885315 -0.013549218 0.10958588 -0.46120232
00000000: 7ab3 e33e 6342 8a3e 6163 edbd 4706 ef3d
00000010: cec8 c43d d8e1 943d b344 68bd e892 1dbf
00000020: 2d7f cb3c 6b0e a73e 513d 4cbe c5da 823e
00000030: 294d ad3d b11c e53d ba79 8bbe 892e 1ebf
00000040: 02f0 1bbf a45c 893c ffb7 22bf f8a8 b3bd
00000050: bad6 c03e 081c d03d 05a8 f8bd cf4a 6a3e
00000060: aa4c 3fbd eb3e 463d 0350 21bf 662d bd3e
00000070: e3a0 333e 9cf8 1bbf e859 963e 91bc b63d
00000080: e531 db3d b7c3 15be b374 7dbe a4bb 1f3f
00000090: f904 123f f2d8 243e 361e 88be 8f75 43bd
000000a0: 8af1 153f 2bf5 d53d ebb0 ee3e d27c 05be
000000b0: 2a12 d43d 5dc3 b0be 563d b63a 2172 913d
000000c0: 6ed7 fa3b 5607 b33d 6891 f7bd cf86 35bd
000000d0: 9475 b4be 9eac c83c 7dab 493f 15d8 223e
000000e0: 32d6 4e3d 3c11 b8be df4d 2ebd 52a2 ce3c
000000f0: 6543 293d 7b09 a93d d14a ebbd dbbe 1c3e
00000100: 18e5 ff3d 2077 b6be 8155 96be 082a 453d
00000110: 7810 7b3c ab57 253f ff42 0a3f 1a38 0abe
00000120: a885 3fbe 2911 5a3e 7f7c ba3c 1620 a43d
00000130: 686a 153f fc06 ce3d 590e 2abf defe 673e
00000140: 9727 d03d 1a15 05bf b343 1ebe eace 3f3f
00000150: 3af7 37be 80f5 06bf d293 bcbb 332f 963e
00000160: 2f6b c3ba 7836 a2bc 6863 0fbd 5c17 ed3d
00000170: 850d f0be 8afd 5dbc 906e e03d b622 ecbe

output_layer.bias f4 [3]
0.1885864 0.12834203 0.20203583
00000000: cb1c 413e 186c 033e 7be2 4e3e
